d_MiniGrid_RL/dqn_fin.pth (torch, 184245 bytes, 10 tensors)

conv.0.weight f4 [32, 4, 3, 3]
000000 ee 7f 6a 3d af 1f bf 3c 56 f5 0c 3b 33 10 7f bd
       0.05725091 0.023330538 0.0021508536 -0.06227131
000010 d0 c3 9b 3d be 7a be bd db 94 eb 3c dd 14 b5 3d
       0.07605708 -0.09300755 0.028757503 0.0884187
000020 07 15 9b 3d 90 e6 d8 3c 1b 13 93 3d f5 96 71 3c
       0.0757237 0.026477128 0.071813785 0.014745464
000030 04 ba ed bd 53 c8 0c 3e 78 9a 1b be fa b8 6c bd
       -0.11607745 0.13748293 -0.15195644 -0.057793595
000040 9d 47 14 3e 0a f0 b4 3d 36 66 0d 3e f2 bc 20 3e
       0.14480443 0.08834846 0.13808522 0.15697077
000050 ae b8 fd bc 2b 30 aa bc 75 fd 1a 3e 73 40 2f bd
       -0.030971851 -0.020774921 0.15135749 -0.042786073
000060 ae 0e 17 be 41 04 1c 3e a7 c6 d2 3c bc 4a 2b 3d
       -0.14751694 0.15235998 0.02572949 0.04181932
000070 1b 61 37 bd f2 f8 c6 3d 68 1b c2 bd 2d cb 5b 3d
       -0.04477034 0.09715451 -0.094778836 0.05366056
000080 a6 2e 6d bc a4 b7 d3 bd 39 4c 39 3e ce 38 0a be
       -0.014476454 -0.10337761 0.18095483 -0.13498232
000090 63 1e 29 bd 90 ba fb 3d f6 60 41 3d ab a7 79 3d
       -0.041288745 0.12291443 0.04721161 0.060950916
0000a0 07 b3 27 3d c8 cd bf 3c 1d 88 ca 3b b4 1c 45 3d
       0.04094222 0.023413554 0.0061807767 0.048123077
0000b0 ca 8e 61 bd 07 60 18 3d 31 f9 17 3e 17 53 37 bb
       -0.055067815 0.037200954 0.14841153 -0.002797311
0000c0 28 bb ba 3c 50 fe ca 3d 90 95 72 be 1a 22 40 3d
       0.022794321 0.099117875 -0.23689866 0.04690752
0000d0 72 00 2e 3d 3c f2 f9 bd 37 d0 8f 3c 78 7a 08 be
       0.042480893 -0.12204406 0.01755534 -0.13327968
0000e0 1e 17 7d be 9d d9 3f 3d df 6c 75 3d 2c ad 72 bd
       -0.2471585 0.04683839 0.05991828 -0.05924718
0000f0 5f 64 d0 bd 91 ec 05 bc 46 e6 5f 3d 55 6c de bb
       -0.10175394 -0.008174078 0.054662965 -0.0067878165
000100 65 1b 9c 3c e5 4f cd bd 0b 30 5c be 0c b2 05 be
       0.019056031 -0.10025004 -0.21502702 -0.130562
000110 a8 c8 af bc 00 ad 10 be cc f1 81 bd ba e8 fb 3d
       -0.021457985 -0.14128494 -0.06344947 0.123002484
000120 51 b6 f6 3d f9 39 d0 3b 1a a5 4a bd 78 f4 3e bd
       0.12046493 0.006354567 -0.04947386 -0.046619862
000130 f7 45 8e bc 66 b7 a7 3c 0b e4 f1 3d 92 e4 35 bd
       -0.017367346 0.020473193 0.11811074 -0.044407435
000140 88 cd eb bd d1 a5 3f be 3e 67 84 bd e9 05 fc bd
       -0.11513811 -0.18715598 -0.064650044 -0.12305815
000150 77 6b 8c 3d 64 88 ff 3d 0d 48 ce 3d 5a 45 73 3d
       0.06856435 0.12477186 0.10072336 0.05939231
000160 38 bf ef bd eb 74 2b bd 94 4f cd bd 83 3d d4 3d
       -0.11706394 -0.04185955 -0.10024944 0.10363295
000170 e7 48 56 be b4 19 81 3d de 38 25 3d 2e 20 d2 3d
       -0.20926248 0.063037306 0.040337436 0.10260044
000180 2d 34 13 3e 5e 2c 5e bd 80 51 3d bc ab 2f 89 be
       0.14375372 -0.05424153 -0.011555076 -0.2679418
000190 58 1a 15 bd 71 d3 3e bd 52 0a d0 3c ac 01 9b 3d
       -0.036402076 -0.046588365 0.025395546 0.07568678
0001a0 6b 73 a4 bd a6 47 65 bc 81 3b 72 3c 2a d9 75 bc
       -0.08029827 -0.013994133 0.014784695 -0.015005389
0001b0 73 09 93 3d 49 c8 24 be f4 fe ec bc 77 fe b4 bc
       0.07179537 -0.16092028 -0.028930165 -0.022093995
0001c0 1e f8 08 3d 68 84 80 bd bf 22 59 bd 4c c1 4b 3c
       0.033439748 -0.062752545 -0.053011652 0.012436222
0001d0 0a 88 18 3c f2 c5 b1 bb 41 10 0b be b8 cc ba bd
       0.009309778 -0.0054252082 -0.13580419 -0.09121078
0001e0 e3 4d d3 3d 32 ef c9 3d f3 f3 dc 3b 19 ad c0 bd
       0.1031759 0.09860076 0.006742948 -0.09408016
0001f0 d0 ab 7d 3d 53 50 8e 3d db 48 9b 3d de 3a 65 be
       0.06193143 0.069489144 0.075822555 -0.22385737
000200 81 ab 80 3d 77 d2 95 bc 52 ff e9 3d 71 ca ec 3d
       0.06282712 -0.018288834 0.114256516 0.1156205
000210 b6 d7 d0 3c f6 0c 82 3d 6c 39 15 3e 2d 38 31 3e
       0.025493484 0.06350128 0.14572686 0.17306586
000220 47 4b aa bc 5b e5 db 3d 83 8c 8c 3b bf fc 0a bd
       -0.020787848 0.107371055 0.0042892112 -0.033932444
000230 a0 fb 25 3e bc af 38 be 13 0d e1 3d 96 4b 49 3e
       0.16209269 -0.18035787 0.10988822 0.1965774
000240 94 ec 7c 3d 75 bb 91 bd 11 36 04 3d 3d 96 9d bc
       0.061749056 -0.07115833 0.032278124 -0.019236678
000250 00 41 48 bd 26 3d a4 3d a2 08 fe 39 7e e7 9a bd
       -0.048890114 0.08019476 0.00048453087 -0.07563685
000260 71 23 94 3c 13 52 a0 bc f3 c5 0a 3e 18 0f 36 be
       0.018083306 -0.019570386 0.13552074 -0.17779195
000270 c2 ee 3c 3d 5a cb 90 bd 48 f9 ec 3d 8a 7f 48 bd
       0.046126135 -0.07070036 0.11570984 -0.048949756
000280 29 97 9e bd cb 54 ab bc ad 9c 0d bd cf 04 69 3e
       -0.07743675 -0.020914456 -0.034573246 0.2275574
000290 f5 a9 95 3d b2 5d 8e 3d fc 4e 07 3e 5b 33 f5 bc
       0.07307807 0.06951465 0.13213724 -0.029931715
0002a0 de e5 18 3d 96 5f cd 3d 6b cf b6 bd da 9c 2b 3d
       0.037328593 0.10027997 -0.089262806 0.041897632
0002b0 9f 85 fe 3c e7 3b 09 3d 97 e9 aa bd 06 21 0a be
       0.031069575 0.033504393 -0.08345335 -0.1348916
0002c0 89 58 30 3e 3d b9 f2 3d 89 ed 8b bd de 31 c9 3d
       0.17221273 0.11851738 -0.068324156 0.098239645
0002d0 c4 2e 96 bd 55 81 cc 3b db 2d 11 3d 6c 81 bd 3c
       -0.073331386 0.0062410035 0.03544412 0.023133002
0002e0 21 d3 16 3c fe 2d 6e 3d 4d d1 88 bc 58 1f 4a bd
       0.0092056105 0.05814933 -0.016701365 -0.049346298
0002f0 af 31 4c 3d 52 c6 8c 3d b1 1f 2c be f7 eb 16 be
       0.04985207 0.06873764 -0.16808964 -0.14738451
000300 2f a4 70 bd 10 62 fb 3d 32 29 ff 3d bf 3d 0a 3d
       -0.058750328 0.12274563 0.12459029 0.033750292
000310 b6 fe 93 3d f4 49 df bc 26 55 3c be 61 80 2d be
       0.07226317 -0.027256943 -0.18391857 -0.16943504
000320 95 d6 10 3e 5c b3 e8 3d 36 48 2e 3e 3d e7 9c bd
       0.14144357 0.11362335 0.17019734 -0.07661293
000330 ab 12 5f bd 72 ac ba 3d f7 c0 bd bd 6b 29 29 3c
       -0.054461163 0.091149226 -0.09265321 0.010324816
000340 c3 ed 12 be fa 21 0a be 29 4b 3d be b2 45 bf bd
       -0.14348511 -0.13489524 -0.18485703 -0.09339465
000350 81 d3 e1 bd 4c e7 5f 3e 00 20 88 3e c7 55 f9 3d
       -0.11026669 0.21865577 0.26586914 0.12174564
000360 1a 64 e5 3d 89 51 c8 bd 13 0f a3 ba f4 7e f1 bc
       0.112007335 -0.097811766 -0.0012440406 -0.029479481
000370 9a a8 01 3d d7 29 36 bd a5 b4 08 3c 1d 66 1b 3e
       0.03165493 -0.044473495 0.00834385 0.15175672
000380 7b 3c ce bd 05 69 0a 3d 2d 89 90 bd b2 95 05 be
       -0.100701295 0.03379156 -0.07057414 -0.13045385
000390 e3 49 d8 3d 64 8e ed bd 3b 80 90 bb 6b 79 c0 bd
       0.10560968 -0.115994245 -0.0044098175 -0.09398159
0003a0 49 9a f6 3d cb 9b 38 3d b1 15 a1 3d 03 2a 1c be
       0.12041146 0.04507045 0.078654654 -0.15250401
0003b0 6b 48 19 be 64 e9 13 be c3 7d 45 bd 78 c2 c5 3d
       -0.14969032 -0.144445 -0.04821564 0.096562326
0003c0 fb f4 13 be fd 1a 81 bd 01 94 4e 3e 2b be 20 3e
       -0.14448921 -0.06303976 0.20173647 0.15697543
0003d0 5b e1 cc 3d a0 0c 49 be c7 a1 a2 3d ab 25 10 3b
       0.10003921 -0.19633722 0.07941013 0.0021995108
0003e0 cb 5b 45 3e fb 18 61 be e1 9b d5 bb cf 44 3c 3c
       0.19273297 -0.21982186 -0.0065188264 0.011491015
0003f0 b1 01 2d bd 53 38 c2 3d 3f 5f 2f 3d 73 2c 00 3d
       -0.04223794 0.09483399 0.042815443 0.03129239

conv.0.bias f4 [32]
000000 be 94 c6 3c ed 23 61 bd 9a c0 05 3e c9 7f 18 bd
       0.024240848 -0.054965902 0.13061753 -0.03723124
000010 e8 ff 84 bd dd 5b 5d bd 2b 0c 90 3d d1 de a6 bc
       -0.06494123 -0.054042686 0.07033571 -0.020369919
000020 58 2d f9 bd 4e 23 24 bd d7 3a 59 3c 21 8b 15 3d
       -0.12166852 -0.04007273 0.013258657 0.036509637
000030 ea c6 fd 3d da 5d 08 3e c9 47 d7 3a 90 a0 99 bc
       0.123914555 0.13317052 0.0016424592 -0.01875332
000040 1e 21 f8 3d 06 27 eb 3d ba 66 64 3e 03 ce b6 bd
       0.121156916 0.114820525 0.22304812 -0.08926012
000050 fc 5f d7 3d ae fd 1d 3d c0 33 e3 bd c1 1c 12 bd
       0.105163544 0.038572006 -0.11093855 -0.035671953
000060 89 d5 1c be a1 27 39 bc e1 af 3b 3e 98 be ee bd
       -0.15315832 -0.011300952 0.18328811 -0.116574466
000070 b2 62 43 3d 91 46 6c 3d 93 d4 b6 bd e3 b9 1a 3d
       0.047701545 0.057684485 -0.08927264 0.03777493

conv.2.weight f4 [64, 32, 3, 3]
000000 5a a6 3e 3e c8 aa 58 bd 12 2d 2d 3d 57 f1 88 3c
       0.18618146 -0.052897245 0.04227931 0.016716642
000010 1e 46 96 be 5a b2 d7 3c 02 bf ac bc 79 b4 0b be
       -0.2935037 0.026330162 -0.021087173 -0.13643064
000020 0f 4c 1b bd 8c 57 59 bd af 01 42 be b3 3d 33 3e
       -0.037914332 -0.053062007 -0.18945955 0.17504005
000030 c1 23 e2 bd 7c dd cc bc 74 4a d1 3d 4e 30 09 3d
       -0.11041976 -0.025007956 0.10219279 0.033493333
000040 f6 8a 44 3d 9b e7 21 3d 77 36 8a bc 4f 7b e9 3c
       0.047984086 0.039527517 -0.016871674 0.028501181
000050 60 cd 64 3d b7 8c 92 3c 35 cf 6f bd 78 18 a1 3c
       0.055859923 0.017889364 -0.058547217 0.019664988
000060 8a d5 58 3d 7e fd 76 bb ad d6 85 3d 64 02 3d 3d
       0.05293802 -0.0037687714 0.06535087 0.046144858
000070 11 e9 04 3c a8 3a 3f 3d 6e c3 35 bd e0 15 43 bd
       0.008112208 0.0466868 -0.04437583 -0.047628284
000080 dd 77 bd bc 30 32 d8 3b 2b 4e b0 3d 53 16 b0 3d
       -0.023128444 0.0065977797 0.08608659 0.08598008
000090 79 28 0c bd f9 56 dd bd e8 9f 5f 3e 01 9c 47 bd
       -0.034218285 -0.10807604 0.21838343 -0.04873276
0000a0 45 fd 22 3d 6b 74 8c 3d 6e c9 b2 bd 28 9c 37 3b
       0.039792318 0.068581425 -0.08729826 0.002801666
0000b0 73 16 8c 3d 46 04 fb bd 29 4b ab bc 48 1f a6 bc
       0.06840219 -0.122566745 -0.020909863 -0.020278588
0000c0 68 1d 17 3c 90 55 c6 bd 0d 25 0e 3e 29 b5 0d be
       0.00922332 -0.096842885 0.13881321 -0.13838638
0000d0 04 f3 b9 bd 93 e5 d6 3b 9d 3d ad bd 9d 64 c1 bd
       -0.09079555 0.006558129 -0.084590174 -0.094430186
0000e0 2a 71 10 be 2e 21 b7 bd e6 43 f6 bd 3c 65 3a bd
       -0.14105669 -0.089418754 -0.12024669 -0.0455067
0000f0 c3 3a 2f bd 6e 50 21 3d 8a 25 01 3d 25 73 79 bd
       -0.04278065 0.039383344 0.03152994 -0.060900826
000100 11 5b 92 bd 30 74 fd bc af b1 f0 bd c3 81 0c be
       -0.07146276 -0.030939192 -0.117526405 -0.13721375
000110 bd eb b8 bc 32 a5 dd bc 58 ad 0e 3d 13 e2 fc 3d
       -0.022573346 -0.02705631 0.034833282 0.12347808
000120 52 5f 00 be c8 ed 48 be 02 0b 86 bd 3f b5 86 be
       -0.12536362 -0.19621956 -0.06545068 -0.26310155
000130 5d 39 03 bd a3 6e c3 3a 13 77 0b be 40 5d 29 bd
       -0.032037128 0.0014910292 -0.13619642 -0.041348696
000140 a7 4e 4d be 7b 6d f0 3d b5 93 4b be 1f 5c c4 3c
       -0.20049535 0.11739632 -0.19880565 0.023969708
000150 25 73 c3 3d 87 62 80 bd 81 36 b8 bc 0e 6e 9e bd
       0.095434465 -0.062687926 -0.022486927 -0.07735835
000160 8a 81 32 be aa 83 c3 3c fa 37 d0 bd 03 b6 24 be
       -0.17432228 0.023866493 -0.10166927 -0.16085057
000170 83 e0 96 3d 32 53 1c bd 95 23 43 be 73 4c 72 bd
       0.07367041 -0.03816528 -0.19056542 -0.05915494
000180 55 08 c9 bd 59 ae 25 bd b8 ba f3 3c 3c 9c 62 bd
       -0.09816042 -0.040449474 0.02975212 -0.055324778
000190 29 82 4a 3d cd 6b 93 bd c1 96 a1 ba 7a 5c 7d 3d
       0.049440537 -0.07198296 -0.0012328253 0.06185577
0001a0 69 59 10 3c f6 0d 4b 3b 10 a4 8e bc e8 99 d3 bd
       0.00881038 0.0030983663 -0.017412215 -0.1033209
0001b0 b7 24 c7 b8 12 9e 98 bc e8 ba 74 bd c4 20 75 3d
       -9.495898e-05 -0.018630061 -0.05974856 0.0598457
0001c0 b7 94 c7 bd 78 2c 22 bc 93 bc 4e 3d 1e e2 3f 3d
       -0.09745162 -0.0098982975 0.050472807 0.0468465
0001d0 53 fe a8 bc 5c 69 5f bd 2c 27 40 3e 39 3d 0a be
       -0.020629084 -0.054543838 0.18764943 -0.13499917
0001e0 84 d2 89 3d fc 39 c2 3d 39 a4 85 bc 13 6e 26 3d
       0.06729606 0.09483716 -0.016313659 0.04063232
0001f0 15 4a 88 3d 92 54 08 be 36 13 46 be 72 78 24 bc
       0.06654755 -0.13313511 -0.19343266 -0.010038482
000200 9c b0 f1 3c fd 4e 31 be 7f 07 be bd 92 c0 c7 bd
       0.02950316 -0.17315288 -0.092787735 -0.09753527
000210 13 a8 5c bd 2f 16 c4 bc 36 e7 18 3c 7c 14 b5 bd
       -0.053871226 -0.02393636 0.009332469 -0.08841798
000220 00 04 ba 3d 7a b7 68 3c aa 6f 76 3d 5a 8a 96 bd
       0.09082794 0.0142039005 0.060165085 -0.07350607
000230 6c ab 11 3d ec b9 da ba ce 52 b5 3c e5 8d 8a bd
       0.03556387 -0.0016687489 0.02213421 -0.067653455
000240 ff 44 10 3d 30 25 6a be b3 c3 e0 3c e9 d5 5f 3c
       0.03522205 -0.22865748 0.027437067 0.01366184
000250 25 c0 87 bd d5 ac b8 bc 1d 91 97 bd bf 79 44 bd
       -0.066284455 -0.02254335 -0.07400725 -0.04796767
000260 6f 8e a8 bc 79 d5 16 bd d5 d3 af 3c f9 76 01 bc
       -0.02057573 -0.036824677 0.021463314 -0.0079019
000270 7a 37 e8 bd 16 95 ef bb cd 7d 66 3d f1 28 21 bd
       -0.11338706 -0.0073114736 0.056272317 -0.039345685
000280 ff b7 64 bc 68 5a d9 bc b3 fd 16 3d a1 a6 f7 3c
       -0.013959884 -0.026532367 0.03686304 0.030230822
000290 41 3a 10 3e 9a e6 94 3d fa 97 f9 bc 09 d4 7b bc
       0.14084722 0.07270546 -0.030467976 -0.015370377
0002a0 1a 90 ed 3d 80 2b 5c 3c ed b5 80 3d 72 10 01 3d
       0.11599751 0.013438106 0.062846996 0.031509824
0002b0 55 99 b2 3d c7 e3 0a bc a4 90 12 bd 0f 4e 42 3d
       0.08720652 -0.008477158 -0.03578247 0.047437724
0002c0 8d 32 31 3d 0d b7 9a 3d 8e 80 f7 bd 5c b6 df bc
       0.0432611 0.075544454 -0.12085067 -0.027308635
0002d0 ef a1 32 bd 0a 9d cc bd a2 0f a3 3d 88 37 30 bd
       -0.043611463 -0.0999089 0.07961966 -0.04302171
0002e0 77 46 b3 bd e4 f3 af bd bc d6 09 3d 6f 77 d3 3c
       -0.087536745 -0.0859144 0.033652052 0.025813786
0002f0 3a f8 ff 3c 30 73 08 3e be b0 1a be 75 32 95 3d
       0.031246293 0.1332519 -0.15106484 0.072850145
000300 0f e2 79 bb 70 07 73 be 1c 8f b6 3c ea 6a 45 3c
       -0.0038129126 -0.23733306 0.022285037 0.012049416
000310 ec 48 9b bd 93 08 a5 bc fb 15 d3 3c cd 11 1a bd
       -0.07582268 -0.02014569 0.025767317 -0.037614632
000320 92 88 57 bd 9d 8b 8f 3d 89 ff 0a be ee 3e 11 bd
       -0.052620478 0.07009051 -0.13574041 -0.035460405
000330 be c1 89 3d fe 3c 16 be 9b c0 c3 bd f6 00 b3 3d
       0.067264065 -0.14671704 -0.09558221 0.08740418
000340 8b 67 ef bd d6 8e 6a 3e e6 21 8f bb b8 4f 0f 3e
       -0.11689671 0.2290605 -0.0043680547 0.13995254
000350 2c a3 fd bd 75 d7 83 bd e2 49 09 be ba b3 09 be
       -0.12384638 -0.064375795 -0.1340709 -0.13447466
000360 de 9d 13 3d e8 df a6 bb b5 f9 cd 3d 7c e4 13 3e
       0.036039226 -0.0050926097 0.100573935 0.14442629
000370 6e a3 6a bd 05 96 c2 bc a7 9e 09 3c 81 ac bc bd
       -0.057284765 -0.023753176 0.008399642 -0.0921259
000380 c2 a0 d6 bc 56 5b 17 be 87 1e e7 3c f4 0c ba 3d
       -0.026199702 -0.14780936 0.028212799 0.09084502
000390 a3 8a a3 3d 0d e4 a8 3c bf 8b 24 bd 8e a4 5d 3d
       0.07985427 0.020616556 -0.040172335 0.05411201
0003a0 7b 1f fb bc 1d 9b 0f bc b9 7e 11 bd 54 f4 80 bd
       -0.03065466 -0.008765009 -0.035521243 -0.06296602
0003b0 c4 ad ac bd 67 89 38 3d 18 0c 16 3c 0f 8c 91 bd
       -0.08431581 0.045052912 0.009158157 -0.07106792
0003c0 0b 0f f3 3d e6 66 1a bd a0 19 2b bc 87 9a 57 be
       0.118681036 -0.037695788 -0.010443121 -0.21055041
0003d0 34 13 21 bc e4 87 f4 3d ed 3b e6 bc a7 29 8b bc
       -0.009831239 0.119399816 -0.028104747 -0.016987635
0003e0 b6 80 01 3d 9c fd 1f be 39 3e 37 be d3 75 1a bd
       0.03161689 -0.15624088 -0.1789483 -0.037710022
0003f0 93 f0 3a be d4 32 08 be 00 9a 51 3d cb 34 03 be
       -0.18255834 -0.1330064 0.051172256 -0.12813108

conv.2.bias f4 [64]
000000 9b 2b 96 3d a8 41 5c 3c 23 35 93 3d a0 92 63 3b
       0.07332536 0.013443388 0.071878694 0.0034724846
000010 08 49 6d 3c aa 50 da 3d ad 24 37 3c 6b ca 03 3e
       0.014482744 0.10659917 0.011178178 0.12870185
000020 34 aa 41 3c cc 88 a2 bb 1a 1b 53 3d 08 4b 83 bd
       0.011820365 -0.004960155 0.051539518 -0.064107955
000030 bf 38 72 3c b2 5c 3b 3c 5d 92 2d bd b0 d1 8e 3c
       0.014784037 0.0114356745 -0.04237591 0.017433971
000040 08 80 b3 3b 0e b7 bc 3d 10 4a f3 3d aa 8e 84 bd
       0.005477909 0.092146024 0.11879361 -0.064725235
000050 ae a9 8c 3a 17 4c 7b 3c a0 90 9c 3d 6a 09 de 3d
       0.0010731721 0.015337965 0.076447725 0.10841639
000060 be 46 c0 3d ab 53 f4 3d f7 37 6f bd 2b 7a 55 3d
       0.09388493 0.11930021 -0.05840298 0.05211846
000070 92 b4 a2 3d ad 5c 81 3d 90 b2 c4 3c b5 23 a8 3d
       0.07944597 0.063165046 0.024010926 0.082099356
000080 f2 fd 1f bd 6c 9a 2f 3d 0f 80 79 bd f9 db 31 bb
       -0.03906054 0.042871878 -0.06091314 -0.002713917
000090 5f 01 0c bc 0a f1 0d 3d 25 78 6f bd 4b 77 27 bd
       -0.008545249 0.0346537 -0.058464188 -0.04088525
0000a0 25 15 6a 3c df 7c dc 3d 26 01 e4 3b 33 70 b7 bc
       0.014287268 0.10766005 0.0069581447 -0.022392368
0000b0 49 09 00 bd 51 be ef 3b c1 8f 04 3d ae 4d 2a 3d
       -0.031258855 0.0073163887 0.032363657 0.041577987
0000c0 00 0a eb 3c b4 6e 23 bd e3 65 69 bc c4 20 2c 3e
       0.028691292 -0.039900497 -0.014245483 0.16809374
0000d0 59 be e3 3d 2d 1b 44 bb 29 81 4b bd 57 b5 46 bd
       0.1112029 -0.0029923425 -0.049683724 -0.048512783
0000e0 fc aa d2 3b fa d2 45 bd db a7 25 3d dc 50 bc 3d
       0.0064290743 -0.048296906 0.040443283 0.0919511
0000f0 b4 44 b9 3d 26 10 d5 bc a8 9a 45 3d a2 96 24 3d
       0.09046307 -0.026008677 0.048243195 0.040182717

fc.0.weight f4 [128, 64]
000000 5d 8b 26 3d 96 d6 97 be fc 27 e9 bc a2 03 01 3e
       0.04066025 -0.29655904 -0.028461449 0.12599042
000010 f9 0c ad bd b9 bc 26 bd f5 08 7d b9 4d 23 a3 3d
       -0.0844974 -0.040707324 -0.00024131297 0.079657175
000020 e0 f1 1c 3d 97 b1 53 3e 4f 63 b4 bd ab 4c 2c bd
       0.038316607 0.20673214 -0.08808004 -0.042065304
000030 2e cd 78 3d b2 ff 88 3d 00 15 b3 bd 77 7d 8c bd
       0.06074255 0.06689395 -0.0874424 -0.06859868
000040 f7 f5 43 3e a1 a7 5a 3e e0 2f 75 bd e8 ae af bd
       0.19136797 0.21353008 -0.05986011 -0.085782826
000050 b5 d5 1d 3e 62 c6 c9 3d 3e 72 24 3e fc 2c a3 bc
       0.15413554 0.09852292 0.16059205 -0.019918911
000060 d3 86 19 bd fe 07 cf bd d2 e7 90 bd 07 20 fb bd
       -0.037482094 -0.10108946 -0.07075466 -0.12261968
000070 41 f0 59 3b 44 76 7a 3d ab 69 fb bb b0 81 76 bd
       0.0033254775 0.061147943 -0.0076725087 -0.060182273
000080 2f 30 82 bd 77 3d f2 3d a0 41 11 bd bb 14 9c bd
       -0.063568465 0.1182813 -0.035462976 -0.076211415
000090 11 9e a3 bd 56 51 4b 3d 9e 12 5f 3d 0d 0c ff bd
       -0.07989133 0.049638115 0.054461114 -0.124534704
0000a0 02 47 cb 3d 20 60 dd 3d d7 3f ca be 96 06 34 3c
       0.09925653 0.1080935 -0.3950183 0.010987898
0000b0 5d b8 93 3d 93 1a aa bd 9a 30 09 be ea bf 07 3d
       0.07212899 -0.0830585 -0.13397446 0.033142008
0000c0 9d 27 fa bc c8 d5 81 bc c6 3a f1 bd 57 67 4d bd
       -0.030536467 -0.01584901 -0.11778788 -0.05014738
0000d0 3d 5a 81 3d c5 3c 00 3e 4a fe 96 bd e2 8e a1 3d
       0.0631604 0.12523182 -0.073727205 0.07888581
0000e0 f7 73 ee bd 30 27 dc 3d 3a d3 c9 be a6 f5 11 be
       -0.11643212 0.10749662 -0.39418966 -0.14253864
0000f0 fa f4 2e 3d 22 54 4c 3d b0 9b e4 bd df ae 6d bc
       0.042714097 0.049884923 -0.111625075 -0.014507025
000100 cf 49 72 bc 2a a9 ca bd 60 0d 24 3d f4 5f b3 bc
       -0.014788105 -0.09895547 0.040051818 -0.02189634
000110 26 06 bf 3d 80 38 82 bd 8e 6a b8 3d a6 8d b1 3c
       0.093273446 -0.06358433 0.09004699 0.021673989
000120 93 72 b9 3d a4 b2 b7 bd de 0a a9 bc 84 8f 39 3d
       0.090550564 -0.0896962 -0.020635065 0.045302883
000130 a0 6e 16 3c 3a 8e 0b bc d0 20 92 bd b9 d2 be 3d
       0.0091816485 -0.008517796 -0.07135165 0.09317536
000140 d6 57 bd bc 8f df f7 bd 28 59 25 3d ee 1f 49 3c
       -0.023113173 -0.12103187 0.04036823 0.012275679
000150 3b 01 ce bc b3 31 48 3c 72 d5 fc 3d a7 a5 25 bd
       -0.025147071 0.0122188805 0.12345399 -0.04044118
000160 ea 8c 93 3d 08 c0 e9 3d 33 fe 45 3c fe 63 8e 3d
       0.072046116 0.1141358 0.012084532 0.06952666
000170 77 a4 a1 bd 96 16 0e 3e 1e 55 3e bd cf 72 94 bd
       -0.07892697 0.13875803 -0.046467893 -0.072484605
000180 5e a6 8b bd 77 6d c8 bc 8d 2c b0 bd 89 e9 48 3d
       -0.068188414 -0.02446626 -0.086022474 0.04905084
000190 a3 f7 eb 3d a0 95 fd bd 5a 1d 85 bd 51 91 86 3c
       0.11521842 -0.12382054 -0.06499739 0.016426714
0001a0 f1 c5 f4 3c d3 8b 0f 3d aa 90 bc 3c 08 c6 f3 bc
       0.029879542 0.035045456 0.0230182 -0.029757515
0001b0 a0 23 eb 3d d3 1c d3 3d 1f 28 86 3d f8 73 f5 3d
       0.11481404 0.10308232 0.06550621 0.1198501
0001c0 28 61 24 3d ce ab 0f 3c 51 2e 76 bc 85 87 84 3c
       0.040131718 0.008768989 -0.015025691 0.016177902
0001d0 5f 1c 82 3b d4 d5 8a bc a9 85 c3 bc ce f0 cb 3d
       0.0039706673 -0.016947664 -0.023867445 0.09958039
0001e0 08 8c d2 3c c8 3d c5 bd 10 96 31 3e 21 23 b4 bd
       0.025701538 -0.096309245 0.173424 -0.08795763
0001f0 d3 8a e5 3d c9 44 79 3d db c5 05 be 44 2c c7 3b
       0.11208119 0.060856614 -0.13063757 0.006078275
000200 df fc 77 bc 55 6e 7a bd 09 1c 01 be 26 dc 5b be
       -0.015135973 -0.061140377 -0.12608351 -0.21470699
000210 38 2a b8 3d 2a 19 c4 bd a5 f9 3d 3d 3b 2d 05 3e
       0.089924276 -0.09575112 0.046380658 0.13005535
000220 d9 f9 fa bd 00 7b 1e bd ac c3 09 3e b6 11 31 be
       -0.12254686 -0.03869152 0.13453549 -0.17291912
000230 f8 89 1a be 0d 8a a0 3d 69 c9 0b bb ff 8f 77 be
       -0.15091693 0.07838831 -0.0021329767 -0.24176024
000240 98 6a 15 3e fa 0f e9 3c cb 20 1f be 46 ba 36 be
       0.14591444 0.028450001 -0.15539853 -0.17844495
000250 85 cf 8e 3a bd 7f 1f bd df 9c 7c bd c5 c6 cd bc
       0.0010895586 -0.03894018 -0.06167304 -0.025119195
000260 ae a4 09 be de 9e 97 bd 80 07 02 be 94 61 91 3d
       -0.13441727 -0.074033484 -0.12698174 0.0709869
000270 fe ee 85 3d 9e 11 94 3d f3 f2 df 3d 35 93 0a 3c
       0.06539725 0.07229923 0.10935011 0.008457948
000280 96 b8 86 bd e3 01 f4 3c a4 46 df bd e6 32 72 bc
       -0.06578176 0.029786056 -0.109021455 -0.014782643
000290 57 fb 2c bd 52 15 24 be f3 e2 66 be 01 34 13 be
       -0.042231884 -0.16023758 -0.22547512 -0.14375307
0002a0 99 c4 f4 3d a5 62 9c bd 26 f7 48 be 51 01 0a bd
       0.119515605 -0.076360025 -0.1962553 -0.03369266
0002b0 0c 96 36 3d ff 8d 67 3c 76 af 0b 3e 83 48 aa 3d
       0.04457669 0.014132976 0.13641152 0.08314612
0002c0 8f 0f b7 3d 19 77 88 bd 32 e6 23 3e df e6 ae 3d
       0.089385144 -0.06663341 0.16005781 0.08540129
0002d0 94 30 49 bd 60 80 a3 be 90 9e 13 3d 8c ae 66 3e
       -0.049118593 -0.3193388 0.03603989 0.22527522
0002e0 c4 50 ea 3d 0a e2 b9 bd ce af 32 3e d7 64 e5 bc
       0.11441186 -0.09076317 0.17449877 -0.028002186
0002f0 b2 a6 b6 bc e7 0e d3 bd 0b 95 11 be 67 27 03 3e
       -0.022296283 -0.10305577 -0.14217012 0.12808
000300 ee c6 54 bd 71 86 30 3e 16 e7 92 bd bf c4 62 3e
       -0.051947527 0.17238785 -0.071729824 0.22145365
000310 0f 2c a5 3d 09 9d e5 3b b6 ce a9 3d 03 60 1f 3c
       0.08065044 0.0070072454 0.0829138 0.009727481
000320 35 92 58 bc 9f 4a 68 3e 59 af 4a 3d 0c 92 79 be
       -0.013218452 0.22684716 0.04948363 -0.24372119
000330 2b 3c b6 3d 6e cf 47 bd 4c 1c 2b 3d 4d e9 3e 3e
       0.08898195 -0.048781805 0.041775033 0.18643685
000340 9f 7e 26 bd 78 36 db 3d 7c 45 9b bd d9 74 67 bc
       -0.0406481 0.107037485 -0.075816125 -0.01412698
000350 9d 71 1d bd 59 7a 3d 3e d2 13 e4 bc 24 91 30 3b
       -0.03843843 0.18503703 -0.027841482 0.002694198
000360 62 d2 31 3d 49 55 e0 bd d8 98 14 3e 5d bb d8 3d
       0.043413527 -0.10953767 0.1451143 0.10582612
000370 95 28 1b 3e cf c9 21 be 94 3e 32 be 10 c1 5d bd
       0.151522 -0.1579964 -0.17406684 -0.054139197
000380 56 ba 04 3e 45 e6 e0 3d 7c e5 09 bd 08 18 d9 3c
       0.12961707 0.109814204 -0.03366612 0.026500717
000390 8c 92 fc bd 65 a3 bf bd 28 95 b2 3d 38 7e 6c 3e
       -0.12332639 -0.09357337 0.087198555 0.23095024
0003a0 51 5b 78 bb e1 14 c3 bd b1 86 8f bc 91 ef b2 bd
       -0.0037896226 -0.09525467 -0.01752028 -0.087371
0003b0 67 ae 2c 3e a4 3d 09 be c6 97 8a bd c0 1e 28 bb
       0.16863404 -0.1340242 -0.0676723 -0.0025653094
0003c0 9f c7 24 be 7a f7 52 bd 91 68 75 be 32 29 dc bd
       -0.16091774 -0.051505543 -0.2396567 -0.10750045
0003d0 20 fc 94 bd 38 3c d9 bd 3a e3 4e bc 3b 40 20 3d
       -0.072746515 -0.10607189 -0.012627417 0.039123755
0003e0 96 61 02 bd ec a7 88 be 52 54 75 3c 23 da 24 be
       -0.031831346 -0.26690614 0.014973717 -0.16098838
0003f0 6f 0a e3 3d f6 fc 29 3e a2 1d a6 bc 33 4b a5 3d
       0.110859744 0.16600403 -0.020277802 0.08070984

fc.0.bias f4 [128]
000000 67 b1 ce 3d c9 d6 1c 3e 27 75 19 be ca c9 6d 3d
       0.100924306 0.15316309 -0.14986096 0.05805377
000010 7c 07 a1 bc 49 65 48 3e ae f9 13 3d ad 42 34 3d
       -0.01965689 0.19569887 0.036126785 0.0440089
000020 e6 d6 ed bc 02 88 8c 3d 23 64 20 3e ac 4b 28 3d
       -0.029033136 0.06861879 0.15663199 0.04108779
000030 93 15 a1 3e 6c 43 2a 3e ac 22 ef bc f4 6a 79 3e
       0.31461772 0.16627282 -0.029191338 0.24357206
000040 d3 c5 e1 bd ab c0 9c 3e d2 d9 5a be a9 ac 70 3e
       -0.1102406 0.30615744 -0.21372154 0.23503365
000050 15 23 5c 3d bb 37 3a 3c cc fb e9 bd 07 3b 15 be
       0.053744394 0.011365826 -0.114249796 -0.14573298
000060 90 e9 92 3e e8 9b c0 3c ad fd 56 3e 05 27 4b be
       0.2869382 0.023511842 0.20995207 -0.19839104
000070 48 1a 58 3d d1 01 8d 3e 77 c4 4b bd 9f c4 4c 3d
       0.05275944 0.27540448 -0.04974791 0.0499922
000080 33 ac 6d 3e a2 53 73 be ef 2b 31 3e 74 14 66 3e
       0.2321022 -0.23762372 0.17301916 0.2246874
000090 12 3e 33 be 26 ad 4f 3e e5 15 0b bd 70 f5 f3 bc
       -0.17504147 0.20280895 -0.033956427 -0.02978012
0000a0 c4 13 26 3e c6 97 c1 bc c7 4e 89 3e 6d 94 5a 3e
       0.16218477 -0.023631942 0.26817915 0.21345682
0000b0 98 4d ae 3d d4 0a 84 3e cd bb 03 be f2 a0 02 be
       0.085108936 0.2578951 -0.12864609 -0.12756708
0000c0 27 cf 19 3e 2a 30 96 3e 29 8c 09 3e a6 d3 a2 3e
       0.15020429 0.2933362 0.13432373 0.318021
0000d0 03 7d ab bd 3e 20 7e 3e 4d 0e 01 3e c7 59 da 3c
       -0.083734535 0.24816987 0.12603112 0.026654137
0000e0 e9 f5 8f 3e 22 27 38 3c fb 65 20 be 30 a1 3e 3e
       0.28117302 0.011239799 -0.15663902 0.18616176
0000f0 91 89 87 3b d8 c8 4b 3d 0b f6 8f 3e 98 df e3 3d
       0.0041362722 0.049752086 0.28117403 0.111266315
000100 1a a1 91 3e 1e d8 10 be 49 79 0e be 96 fa 8c 3e
       0.28443223 -0.14144942 -0.13913454 0.27534932
000110 8b 21 f6 bb fa 43 38 bd 4e 87 9a 3e fa 57 98 3e
       -0.007511323 -0.044986703 0.30181354 0.2975462
000120 f9 a4 ac bd b1 4d bb 3d 94 75 79 bd 45 9d 45 3e
       -0.084299035 0.09145678 -0.060903147 0.19298275
000130 87 82 2c 3e a2 93 ad bd c3 09 37 3e 57 c9 e2 bb
       0.16846667 -0.08475424 0.17874818 -0.0069209742
000140 ea 8d c0 3d 11 03 62 3e bd 9e 2f be 81 ca 35 be
       0.09402068 0.22071482 -0.17150398 -0.1775303
000150 7e d9 d0 bc 30 60 c8 bd ef 96 25 3e 44 49 cf 3c
       -0.025494333 -0.09783971 0.16170858 0.02530349
000160 27 6d 1e 3d 49 4c 40 be 5d 13 58 be 34 92 5e 3e
       0.038678315 -0.187791 -0.21101137 0.2173546
000170 35 29 5a 3e 82 0f 6b 3e 22 cb 58 3e 5b af 10 3d
       0.21304782 0.22955135 0.21171239 0.035323482
000180 5e ff ae 3d cd 38 25 bc 0b ac 19 3e d5 94 1f 3e
       0.08544801 -0.010084343 0.15007035 0.15584119
000190 42 51 72 3e 59 4b 57 3e ce 0f af bd e9 85 fd 3d
       0.2366381 0.21024837 -0.085479364 0.12379057
0001a0 94 d9 94 3e 68 8f bb bc 58 45 d3 bc ad 7c 87 be
       0.2907225 -0.02289553 -0.025789902 -0.26462308
0001b0 fd d0 90 3e 3a 7a 1e be de c9 23 3e 48 84 94 be
       0.28284445 -0.15476313 0.15994975 -0.29007173
0001c0 4c d2 e5 3d e8 43 69 bd d6 bb bc bc 4c ff 64 3e
       0.112217516 -0.056949526 -0.023038786 0.22363013
0001d0 a5 03 1b 3d af 2d 8a 3e 37 ce 5f 3e f9 eb 54 3e
       0.037845273 0.2698798 0.21856008 0.20793141
0001e0 65 87 1e be 21 27 41 3c 03 19 1b bd 2d c7 dd 3d
       -0.15481336 0.011789114 -0.03786565 0.108290054
0001f0 ac 6b 1a bd 13 cc 96 bd 77 86 ba bd 91 5a 3f 3e
       -0.03770034 -0.07363143 -0.091076784 0.18686892

fc.2.weight f4 [128, 128]
000000 16 91 42 3d 46 78 b0 bd b2 be dd bd 31 c2 32 be
       0.047501646 -0.0861669 -0.10827388 -0.1745689
000010 a8 f4 a8 3d 5d 3a 9f 3d c3 c8 d0 3c 27 e5 f2 3c
       0.082497895 0.07774804 0.025486356 0.029650284
000020 97 d6 3d be 26 10 8c 3c 2c 98 01 bd 2b a0 30 bc
       -0.18538891 0.017097544 -0.031639263 -0.0107803745
000030 ea 73 18 bd d2 d0 f8 3c dd 93 59 3d f1 0e e9 bc
       -0.03721992 0.03037301 0.05311953 -0.028449507
000040 2a 10 4b bd b5 ee 8e 3d 7a 64 aa bc 48 95 7e bd
       -0.049575962 0.069791235 -0.020799864 -0.062154084
000050 28 0c 01 bd a2 5b a8 bd 31 07 82 3d 30 76 6a bd
       -0.031505734 -0.082206026 0.06349028 -0.05724162
000060 21 37 85 bc 9e 46 c3 bd 99 15 3d bd 96 fb 88 ba
       -0.01626164 -0.095349535 -0.046163175 -0.0010450955
000070 81 aa a8 3d 49 2b d2 3d ba 87 22 be 6a c2 bf 3d
       0.08235646 0.10262162 -0.15872088 0.093632534
000080 32 6c 36 3d 1e 81 ba bd 13 64 07 3e 6c 37 06 3d
       0.044536777 -0.091066584 0.13221769 0.0327677
000090 3a d8 87 3d 23 e7 3c bc 41 3e bd 3d f3 69 db bc
       0.06633039 -0.011529717 0.092403896 -0.026783919
0000a0 99 01 e0 3c 9e f5 3b bd 07 1d 87 3c 13 77 dd 3d
       0.027344512 -0.045888536 0.016493334 0.10813727
0000b0 1a c3 62 bd 5e fe 50 bd dc 10 aa 3d 3d 09 a2 bd
       -0.055361845 -0.051023833 0.08303997 -0.07911918
0000c0 50 19 cb 3d 58 db 3f bd 12 3a 21 be 88 22 8a 3d
       0.09916937 -0.046840042 -0.15744808 0.067448676
0000d0 6a 1e 73 bd 12 fa 47 3d 54 80 9d 3d 10 35 29 3b
       -0.059355177 0.04882247 0.07690492 0.0025818981
0000e0 fb 90 84 3d 35 77 df be df 33 0b be a9 50 7a 3c
       0.06472965 -0.43645635 -0.13594006 0.01527802
0000f0 2d 39 ba bd 15 c2 92 bb c2 16 16 3e 24 59 56 3d
       -0.09092937 -0.004478703 0.14657119 0.052331105
000100 0f 2e 55 bb 65 ac fb 3c 38 2e 80 3d 27 67 67 bd
       -0.0032528674 0.030721853 0.062588155 -0.056494858
000110 56 c1 a0 3d 7d 1b e0 3c 1d d3 c1 bc c7 00 6e 3d
       0.07849376 0.027356857 -0.023660237 0.05810621
000120 16 5f e4 bd 1f ea 7d 3d 3b b9 ea 3c 1b 96 8f 3d
       -0.11150949 0.061990853 0.028652778 0.07011052
000130 01 ad 4b 3d 6f 3e a4 bb 76 fe 24 be 37 4a 56 3d
       0.049725536 -0.0050123255 -0.16112694 0.05231687
000140 97 5f fd 3d 53 50 7a bc ac 17 7d bd 74 17 4f bc
       0.12371748 -0.01527794 -0.061790153 -0.012639869
000150 03 fa f8 bc c1 14 9c bd 2d ec 20 3c ea f8 af bc
       -0.030392652 -0.07621146 0.009821934 -0.021480996
000160 66 63 8a bc 86 66 21 3c ee f8 8f ba e6 14 d3 3d
       -0.0168931 0.009851104 -0.0010984221 0.103067204
000170 75 6a 11 3c 27 ad 95 bc 84 81 bc bd 7e c7 ce bd
       0.008875479 -0.018271042 -0.09204391 -0.10096644
000180 9e 29 55 3a 66 62 95 ba d9 97 e3 3d ef 60 ba bd
       0.00081315066 -0.0011397123 0.11112947 -0.0910052
000190 54 cc a9 3c 20 dd 23 3e 16 a7 80 bc 78 e5 d6 3d
       0.020727314 0.16002321 -0.015704673 0.104929864
0001a0 3d 6e 20 bc 2a d2 95 3c ca 4b 8e bd 04 dc 14 3c
       -0.009791908 0.01828869 -0.06948049 0.009085659
0001b0 39 29 10 bd cc da a6 bd 06 14 b5 3c 1c f3 b2 b9
       -0.035195563 -0.08147201 0.022104274 -0.00034131936
0001c0 3c 27 56 bd 3c 31 0c 3e 53 60 05 be 1c ee cb 3d
       -0.05228351 0.13690656 -0.13025026 0.09957525
0001d0 13 91 85 3d 64 0b 06 bd e0 14 24 3d a4 1b fc 3b
       0.06521811 -0.032725707 0.04005897 0.0076937247
0001e0 d3 dd 03 bc f7 50 02 3e 76 a2 da bc 3e 10 0c be
       -0.0080484925 0.12726198 -0.026688796 -0.13678071
0001f0 0a 52 0e 3e 51 54 fc 3d 92 9e 22 3d ab aa 43 be
       0.13898483 0.123207696 0.039702006 -0.19108073
000200 f9 42 45 3d 2e 4c ca 3d ca 7e 99 bc 15 66 dd 3b
       0.048159573 0.09877811 -0.018737216 0.006756554
000210 12 c7 b9 3d bb 02 06 bd cf c6 5b 3d 71 f2 98 3d
       0.09071173 -0.032717448 0.053656396 0.07468117
000220 44 58 26 3d b8 42 04 bd ba f9 8a 3c 59 80 c8 3d
       0.04061152 -0.03229019 0.016964782 0.097901054
000230 1c 92 16 3e 30 a3 5c 3d 3d 98 80 bd 14 82 e7 3d
       0.14704174 0.053866565 -0.06279037 0.11304107
000240 d2 45 1b 3d 41 6c a1 3d 59 e8 97 bd a8 4e 07 3e
       0.037908383 0.07881976 -0.07417364 0.13213599
000250 88 17 b3 3c d0 30 43 3d c8 6e 89 bc 9a 8f 2d bc
       0.021861807 0.047653973 -0.016776457 -0.010593319
000260 b0 c0 5c 3d ae 40 7f 3d 1a 0a 28 3d 5e a0 b0 bc
       0.0538947 0.062317543 0.04102526 -0.021560844
000270 3a e3 b0 3d 28 28 52 3b 1a d7 b5 3c c7 0e d5 3d
       0.0863709 0.0032067392 0.022197295 0.10403209
000280 0e e2 8d 3c 96 1a cd bd 97 8f 64 3c 8f b9 0b 3e
       0.017319705 -0.100148365 0.01395025 0.13645004
000290 69 42 94 bd 7c 24 d2 3d b8 69 87 bd 1b f8 4a bd
       -0.07239229 0.10260865 -0.06611961 -0.049553018
0002a0 12 7a df 3d 14 bd 53 3d 24 b7 ad 3d fb 3e 03 3e
       0.10911955 0.05169399 0.08482197 0.12816994
0002b0 41 ee 81 3d ba 0b 22 3e 02 90 c6 bc 17 80 90 3c
       0.063442715 0.15824786 -0.02423859 0.017639203
0002c0 4f 52 de 3d ac f0 a9 3d 08 db f2 bc 67 39 5d 3d
       0.10855543 0.08297858 -0.029645458 0.05400982
0002d0 2a 8d 8c bd 32 74 08 3e ba 14 e7 3d 02 a3 56 3c
       -0.068628624 0.13325575 0.1128325 0.0131003875
0002e0 70 d2 95 3d 7e 1d b7 bb c6 57 81 bd 34 b3 52 3d
       0.073155284 -0.0055882325 -0.063155696 0.051440433
0002f0 42 66 92 bc 64 b3 b0 3d 41 4b 43 3e f8 9b 27 3d
       -0.017871026 0.08627966 0.19071676 0.040920228
000300 6f a4 04 3e f3 47 04 3d ac e3 8f 3d b0 a1 d9 3d
       0.12953351 0.03229518 0.07025847 0.106265426
000310 11 49 dd 3c 9f 3a fc 3c eb 50 17 3e 55 30 44 3e
       0.02701238 0.030789671 0.14776962 0.19159062
000320 37 2d 87 3c 19 d3 cc 3d 97 c4 f8 bc 3f 34 11 3e
       0.016501052 0.10001201 -0.030367179 0.14180087
000330 09 de a8 3d e6 66 ac bd 9e 77 2a bd f9 eb 8e bc
       0.08245475 -0.08418064 -0.041617982 -0.017446505
000340 78 26 08 3e f2 22 da 3d 1b 69 35 bb 29 86 0e bd
       0.13295925 0.106511965 -0.0027681056 -0.034795914
000350 e6 b0 ad bc 80 af 34 bd 29 b1 27 3c 72 a8 ac bc
       -0.021202516 -0.044112682 0.010235109 -0.021076415
000360 7c 0c 23 3c dc f9 a3 3d 7e cd 1c bd 73 43 05 3c
       0.009951707 0.08006641 -0.03828191 0.008133757
000370 7a 72 bb 3c 3c 8a 55 3d 78 fd 2b bc d9 33 e3 3d
       0.022881735 0.052133784 -0.010497443 0.110938735
000380 cd 91 0a 3d 40 f0 31 bd 71 9c da 3c 29 de fb 3d
       0.033830453 -0.04344201 0.026685925 0.12298233
000390 de 8c 8b 3d 74 7a 91 bc 19 81 ef bb 11 71 98 3d
       0.06813978 -0.017758586 -0.007309091 0.07443441
0003a0 58 cc a6 3c d5 2f cd 3b bc 8e 2a bc e1 e1 7b bd
       0.02036111 0.0062618055 -0.010410007 -0.06149471
0003b0 15 a4 91 3c 3b 5f 80 bd fe e3 d5 3d 42 f3 78 bd
       0.017778436 -0.06268164 0.10443877 -0.060778864
0003c0 f8 52 e5 bc 18 f1 57 bc 24 43 3e 3c b6 14 2c 3e
       -0.027993664 -0.01318004 0.011612687 0.16804776
0003d0 84 66 80 bc b2 fb f0 3d c0 53 87 3c 94 ba 64 3d
       -0.015673883 0.11766757 0.016519427 0.055841997
0003e0 bb 5d 01 3d ce 50 d0 bb 27 14 42 3c 88 7d 92 3d
       0.03158353 -0.006357289 0.011845625 0.071528494
0003f0 9d f5 3f 3b 4c 36 a4 3d ab c1 2c bd 92 0e 87 bd
       0.0029290684 0.08018169 -0.042176884 -0.06594576

fc.2.bias f4 [128]
000000 dd 33 3b 3e 47 07 a4 3e 2f 88 8e 3e eb e8 8d bd
       0.18281503 0.32036802 0.27838275 -0.06929191
000010 4e a3 a8 3d 00 ae 1d bd 6f 0b 9b bd d3 12 bc 3d
       0.08234273 -0.038496017 -0.0757054 0.09183278
000020 6a 33 05 be 88 8d d3 3c 23 b6 a2 3e f8 ad 82 bd
       -0.13007894 0.025824323 0.31779584 -0.06380838
000030 91 b9 9a 3e bb 04 3d 3e 5c 03 1d 3e 76 11 83 3e
       0.302197 0.18458836 0.15333313 0.2559926
000040 9c 47 a2 3e 7a 47 4c bd d0 98 81 3e 88 c2 c7 bc
       0.3169526 -0.049872853 0.253119 -0.024384752
000050 30 22 3e 3e 2e f6 e0 bc 80 1a 04 3c 0a b4 a8 3c
       0.18567729 -0.027461138 0.008062959 0.020593662
000060 7b 10 ce bc 5c 4a 39 be d8 58 07 3c af bf c0 3d
       -0.025154343 -0.18094772 0.008260928 0.09411561
000070 e8 a6 25 bd 54 19 a2 3d fe bb fd 3d 67 e2 3e 3d
       -0.040442377 0.07914987 0.12389372 0.046602633
000080 ba 72 4c 3e ed 23 81 3e 3e d1 48 bc 52 9b 6b 3e
       0.1996564 0.25222722 -0.0122569185 0.23008469
000090 19 ce 5d 3e 5a f3 8a 3e f3 bf 98 bd d1 00 cf 3c
       0.21660651 0.27138788 -0.074584864 0.025268944
0000a0 21 e4 d3 bd 5d 8d 3c 3d 9b e5 ee 3c cc 7d 37 bd
       -0.103462465 0.046033252 0.029162219 -0.044797704
0000b0 1b 1b b1 3d b0 c3 e0 bc 60 7b c4 3d 01 81 81 3d
       0.08647748 -0.027437061 0.095938444 0.06323434
0000c0 8b 2d 29 3c d5 5f b0 bd f5 c2 4d 3e 37 c6 fb 3b
       0.0103258 -0.086120285 0.20093901 0.007683541
0000d0 49 dd 71 3e e6 f4 8d bd c1 25 86 bd 56 35 25 3d
       0.2361957 -0.06931476 -0.0655017 0.04033407
0000e0 b7 6e c5 3d fc f9 cc 3d 13 ae 7c be 49 44 b3 bd
       0.09640258 0.10008618 -0.24675779 -0.08753259
0000f0 1d 34 2a be 28 81 23 3d 5a 3c 59 be 9a 6a 65 be
       -0.16621442 0.039918095 -0.21214429 -0.22403947
000100 57 b8 8b 3c a7 cf d8 bd 4e 00 ed 3d d6 bd c6 bd
       0.017055674 -0.105864815 0.11572324 -0.09704177
000110 1a bd bb bc da 60 37 bd 97 24 6e 3d 1c 2d 8e 3e
       -0.02291732 -0.0447701 0.058140364 0.2776879
000120 b6 30 3c bb b0 41 85 3e 22 9a 67 3e 92 94 1d 3d
       -0.0028715557 0.26026678 0.22617391 0.038471766
000130 8e 8f 8d 3e 64 52 e3 3d 25 65 c0 bd d8 4b 23 3d
       0.27648586 0.11099699 -0.09394292 0.039867252
000140 f0 90 02 3c 33 8f 9d 3e ec f5 31 3e cb 49 91 3d
       0.007969126 0.30773315 0.17378968 0.07094153
000150 30 b5 99 3e 0b 09 3b bd 75 ce 6a bd 1d 61 08 3d
       0.30021048 -0.04566292 -0.0573258 0.03329574
000160 d6 e8 7f bd a0 0c 2a 3d 73 1c 07 be d4 0b 9e 3d
       -0.06247791 0.041515946 -0.13194446 0.077171
000170 fb 83 4d 3c 15 5e da 3c ca a3 1f bd 97 24 d6 3c
       0.012543674 0.02665619 -0.03897456 0.026140494
000180 b0 98 68 be 5a ff bf 3c 2c 02 36 3e 18 5d 89 bd
       -0.22714496 0.02343719 0.17774266 -0.06707209
000190 11 bb 4d be 8f e3 5c 3e 96 d6 46 3d e6 35 8b bd
       -0.20090891 0.21571182 0.04854449 -0.0679739
0001a0 cc 70 0d 3d bd fc 34 be 09 2b b5 bd 66 7c 46 3d
       0.0345314 -0.17674537 -0.08846099 0.04845848
0001b0 1e e1 65 bd 2b b0 6d 3e 3d 7a 9d 3e aa 09 5d 3e
       -0.05612289 0.23211734 0.30757323 0.21585718
0001c0 1e 3f 90 3d 94 07 c0 bd 3d 72 95 bb c4 84 bd 3d
       0.07043289 -0.093764454 -0.0045607374 0.09253839
0001d0 96 f7 bd 3d e6 07 97 3e dd 1d 56 3e e3 ae d3 bd
       0.09275739 0.29498214 0.2090983 -0.10336091
0001e0 44 78 71 3e 48 da 68 3b 2f ba 3a be a2 6f 9a 3e
       0.23581034 0.0035530496 -0.18235086 0.30163294
0001f0 04 ff b8 bd 78 c0 9d 3e 82 20 83 3d a0 f2 af bd
       -0.09033015 0.30810905 0.06402685 -0.08591199

fc.4.weight f4 [3, 128]
000000 8b d4 10 3e 59 ad 02 3e 5f f4 dc 3d 5e 07 1f 3e
       0.14143579 0.1276144 0.107887976 0.15530154
000010 cf c4 2e 3d db cd 7a bd 73 c8 36 3d 0c 3c bf bd
       0.04266816 -0.061231475 0.044624757 -0.09337625
000020 cc 9d 02 3c 4b c0 49 3d 0a bf 0d 3e fd 87 73 bd
       0.007972192 0.04925565 0.13842407 -0.05945586
000030 18 27 1d 3e 94 2e 25 3d b6 ba e3 3d 36 47 f3 3d
       0.15346944 0.040327623 0.11119597 0.11878817
000040 4e fe e6 3d 09 15 05 3d d3 5d 01 3e fa e1 17 3d
       0.112789735 0.032490764 0.12633447 0.037080742
000050 40 64 00 3e 99 da ad bd a0 74 fd bb 8e f7 61 3e
       0.12538242 -0.0848896 -0.00773485 0.22067091
000060 79 73 9b bd 5b a3 f5 bd 4c cc 9d 3d b7 7e 39 bd
       -0.07590384 -0.11994048 0.07704982 -0.04528686
000070 e0 76 f6 bc 04 2e da 3d 29 f9 43 3d 1c 08 04 be
       -0.03008598 0.10653308 0.04784504 -0.12893718
000080 b2 91 94 3d cb d7 1a 3e 50 56 01 be 51 d5 d7 3d
       0.07254352 0.15121381 -0.12630582 0.10538734
000090 72 2e 12 3d b4 3b d3 3d 8a 1b a5 bd 07 a9 f2 bb
       0.035688825 0.10314122 -0.08061893 -0.0074054035
0000a0 b5 52 f2 bd 59 7c 6f bd 19 38 b5 3b 40 70 c6 bb
       -0.11832181 -0.058468197 0.005530369 -0.0060558617
0000b0 15 c4 94 bc a0 49 08 bd 84 49 ae bd 59 2a 87 3c
       -0.018159905 -0.03327334 -0.08510116 0.016499685
0000c0 33 54 01 be 99 b7 92 bd bb 8a 02 3e be 74 de bd
       -0.12629776 -0.07163925 0.12748234 -0.108621106
0000d0 03 1f b4 3d c2 70 94 3d 8d 04 83 bd d8 a4 13 be
       0.087949775 0.07248069 -0.06397352 -0.14418352
0000e0 42 71 50 3d 05 89 0c 3d af 05 2c be ff d0 92 bd
       0.05088926 0.03431036 -0.16799043 -0.07168769
0000f0 b7 e5 04 bd 3d 6b b4 3d d4 a4 d1 bd 73 1b 34 bd
       -0.032445636 0.088095166 -0.102365166 -0.04397149
000100 82 ff 04 3e 1a 63 90 3d db d3 85 3d f8 2b bc bb
       0.12988093 0.07050152 0.06534549 -0.005742546
000110 f1 81 89 3c 1e c6 80 bc 98 a1 55 3d 62 cf 0f 3e
       0.016785594 -0.01571947 0.05215606 0.14043954
000120 9e 88 8d 3d b9 43 e1 3d 3f 25 86 3d cc 11 8b 3a
       0.06910823 0.10999245 0.06550073 0.0010610162
000130 20 93 84 3d 97 c2 ce 3d bb bc ca 3c 6f a3 26 bd
       0.06473374 0.10095709 0.024748197 -0.040683206
000140 5c 66 1f be 92 01 7f 3d ca 0f 25 3d 7c d7 e1 3d
       -0.15566391 0.062257357 0.04029826 0.110274285
000150 54 20 03 3e 4a ea 7e 3c 99 1d 81 3d 2b b1 20 be
       0.12805301 0.015558789 0.063044734 -0.15692584
000160 fe 24 c9 3b a8 ff 22 be 6e 47 80 3d 8b 00 c1 3b
       0.006138443 -0.15917838 0.06263624 0.0058899573
000170 64 c7 d8 bc f7 fa 2a 3e 9a 30 8a 3e 93 83 1f bc
       -0.026462264 0.16697298 0.26990205 -0.00973596
000180 58 e2 19 be 4c ac 85 3c 2f 40 e2 3d a7 49 2f 3c
       -0.1502775 0.01631751 0.11047398 0.010698712
000190 fd 84 34 bc ab 4f 8b 3d dd 19 a7 bd f6 e3 c4 3d
       -0.011018035 0.06802305 -0.0815923 0.096137926
0001a0 66 2a 11 bc b9 2a 6c be 4d 92 a7 bd 27 7f 5c 3c
       -0.008860206 -0.23063172 -0.081822015 0.01345805
0001b0 ca 8a 38 3d e2 05 04 3e 0e 29 9e 3d 6a c6 8c 3d
       0.045054235 0.12892869 0.07722674 0.06873782
0001c0 74 bf 83 3c c6 05 03 be 2d 96 2c bd a9 1f 7d 3d
       0.016082503 -0.12795171 -0.042135406 0.06179777
0001d0 90 3a 38 bd 82 92 a2 3d 60 83 3d 3d de 58 50 3d
       -0.044977725 0.079381004 0.046267867 0.050866
0001e0 83 63 bf 3d 6f 12 9b bb 1a f1 1d be bd 2a 28 3e
       0.09345152 -0.004732422 -0.15424004 0.16422553
0001f0 45 7b 85 bd b9 24 14 3e 61 ff 6d bd 2f ec 82 bd
       -0.065176524 0.14467134 -0.058104876 -0.06392705
000200 3c 24 12 3e 92 d9 0d 3e 91 63 a1 3d a6 68 96 3d
       0.14271635 0.13852528 0.07880319 0.07344179
000210 e4 27 97 bd 3c 41 b2 bc 27 bc 5a 3d d2 85 37 bd
       -0.073806554 -0.021759622 0.053402092 -0.044805355
000220 b7 38 03 bd 42 c4 e3 3c e8 73 cc 3d 99 bf 24 3d
       -0.03203651 0.027803544 0.09983045 0.040221784
000230 1d 5e 08 3e 8c 1b 94 3d c0 52 4c 3d 14 5f 1d 3d
       0.13317151 0.07231817 0.049883604 0.03842075
000240 33 2d 00 3e 97 ca 70 bd ea 32 dc 3d 20 d3 9b 3e
       0.12517242 -0.058786955 0.107518986 0.30434513
000250 53 2f 6e 3b 3e e5 01 bd 60 8b f3 3b 7f 03 b1 3d
       0.0036344125 -0.031712763 0.0074323863 0.08643245
000260 d2 41 69 3d 23 6b f7 bd ba 1a 58 bd e8 90 18 3e
       0.056947537 -0.120809816 -0.052759863 0.14899027
000270 1c 21 07 3d 68 9f 55 be a5 3c ac 3d 5f a4 17 bd
       0.03299056 -0.2086159 0.084100045 -0.03702199
000280 11 c9 e8 3d fe 1d 0a 3e 69 28 8a 3d b1 0c 07 3e
       0.113664754 0.13488004 0.06745989 0.13188435
000290 82 81 a1 3d 74 bf d7 3d ad fe 46 3c 65 1c 02 bd
       0.0788603 0.10534564 0.01214568 -0.03176536
0002a0 26 12 05 be 6b 89 07 bd 36 68 c8 3d 67 cf 95 bc
       -0.12995204 -0.033090036 0.09785502 -0.018287374
0002b0 ab a1 21 3c 6d 89 6d 3d 2f d6 91 bd 55 d3 d3 3c
       0.009865205 0.057992388 -0.071209304 0.025857607
0002c0 2a 70 18 3e f8 12 3f 3c d2 6d 40 3d 85 37 a2 3d
       0.14886537 0.011662237 0.046979733 0.07920746
0002d0 39 46 6e 3d cd 50 8b 3d 5c de 82 bd 69 36 62 bd
       0.05817244 0.06802521 -0.06390068 -0.05522767
0002e0 4f 39 24 bd de 5c ab 3c 07 27 0f be 7b cd 5f 3d
       -0.040093716 0.020918306 -0.13979732 0.05463932
0002f0 24 b6 90 bc b9 d9 64 bc b7 b8 c2 bd 2d 7e df bd
       -0.017664976 -0.013967925 -0.09507888 -0.10912738
000300 80 7b 5c 3d 77 d6 23 bd dc 7f 81 3d 19 53 05 bd
       0.053828716 -0.03999945 0.06323215 -0.03254995
000310 a4 6c 90 bd 6c f4 67 bd e9 53 1e 3d f1 2b f4 3d
       -0.070519716 -0.056629583 0.03865424 0.11922444
000320 ff eb 5a 3b c1 c8 ee 3d 2a b0 24 3d 33 52 93 bc
       0.0033404825 0.116593845 0.040207066 -0.017983532
000330 7c c1 04 3e 4b c0 d5 3d d3 8f 58 bd 67 3c 60 bd
       0.12964433 0.104370676 -0.052871536 -0.054745104
000340 3e d9 9c bc 1f f1 10 3e 7f d7 9c 3d e6 a1 6a 3d
       -0.019146558 0.1415448 0.0765829 0.057283305
000350 4d 64 ba 3d 33 78 db 3c 3a 69 5c bd 0d 98 af bd
       0.09101162 0.026790714 -0.05381129 -0.08573923
000360 8e 04 fa 3c 22 ed 78 bd 8b 04 cc bd b9 c4 d9 bd
       0.03051975 -0.060773022 -0.09961804 -0.10633225
000370 18 33 7e bd 53 75 27 3e f3 f5 50 3e eb af dd bd
       -0.062060446 0.1635335 0.20406322 -0.10824569
000380 4f 5c 2e be ff b7 c7 bd a2 61 1a 3d 4b bf 60 3d
       -0.170274 -0.09751891 0.037690766 0.05486993
000390 60 7d 0c be 14 c9 e4 3d 4f e6 da 3d 22 53 9f 3d
       -0.13719702 0.11171165 0.10688459 0.07779528
0003a0 8f 28 72 3d 06 1c 81 bd 3b 06 b8 bc 1a 4a 7f bd
       0.05912071 -0.06304173 -0.022463908 -0.062326528
0003b0 52 f3 57 3d 42 c6 0a 3e 3c a0 d9 3d bc ef 08 3e
       0.052722283 0.13552192 0.106262654 0.13372701
0003c0 98 70 e6 3c 5c 88 f8 bc 0b 90 14 bd b0 c4 6c 3c
       0.02812986 -0.030338459 -0.036270183 0.014451191
0003d0 ca 71 b0 3d 87 7a 0e 3e 5e 04 00 3e 3e 0c a0 3d
       0.086154535 0.13913928 0.12501666 0.07814835
0003e0 b1 9d 01 3e 90 43 8f 3c 2d b0 82 bc c8 85 f8 3d
       0.12657811 0.017488271 -0.015953148 0.12134892
0003f0 f6 1f cf 3d 85 2e 01 3e 2b c7 3e 3e b8 4f f9 3d
       0.10113518 0.12615402 0.18630664 0.12173408

fc.4.bias f4 [3]
000000 c9 72 1b 3e 07 43 cd 3d 28 62 1b 3e
       0.15180506 0.1002255 0.15174162
